…
poch [20] / Train Loss : [0.01673] / Val Loss : [8.40525] / F1 : [0.16786]\n\n\n\n\n팀원들과 논의\n방향을 잡기 어려워 팀원들에게 도움을 요청했다. 리더보드에서 가장 높은 성적은 거둔 팀원은 timm의 vit를 사용했다고 한다.\n==ViT로 Classification 하기==\nViT를 사용해서 Classification을 하려면 어떻게 해야 할까?\n인터넷의 블로그에서 예제코드를 찾았다.\nimport timm\n \nnum_classes = 120\nmodel = timm.create_model(&#039;vit_base_patch16_224&#039;, pretrained=True, num_classes=num_classes)\ntimm이라는 library를 사용해서 모델을 로드하고 파라미터로 num_classes를 넘겨준다\n하지만 이래서는 blackbox여서 내부 구조를 알 수 없다\nprint를 사용해 내부를 확인해보았다.\n\n\n기본 구조(for 1000 classes)\nVisionTransformer(\n  (patch_embed): PatchEmbed(\n    (proj): Conv2d(3, 768, kernel_size=(16, 16), stride=(16, 16))\n    (norm): Identity()\n  )\n  (pos_drop): Dropout(p=0.0, inplace=False)\n  (norm_pre): Identity()\n  (blocks): Sequential(\n    (0): Block(\n      (norm1): LayerNorm((768,), eps=1e-06, elementwise_affine=True)\n      (attn): Attention(\n        (qkv): Linear(in_features=768, out_features=2304, bias=True)\n        (attn_drop): Dropout(p=0.0, inplace=False)\n        (proj): Linear(in_features=768, out_features=768, bias=True)\n        (proj_drop): Dropout(p=0.0, inplace=False)\n      )\n      (ls1): Identity()\n      (drop_path1): Identity()\n      (norm2): LayerNorm((768,), eps=1e-06, elementwise_affine=True)\n      (mlp): Mlp(\n        (fc1): Linear(in_features=768, out_features=3072, bias=True)\n        (act): GELU(approximate=none)\n        (drop1): Dropout(p=0.0, inplace=False)\n        (fc2): Linear(in_features=3072, out_features=768, bias=True)\n        (drop2): Dropout(p=0.0, inplace=False)\n      )\n      (ls2): Identity()\n      (drop_path2): Identity()\n    )\n    (1): Block(\n      (norm1): LayerNorm((768,), eps=1e-06, elementwise_affine=True)\n      (attn): Attention(\n        (qkv): Linear(in_features=768, out_features=2304, bias=True)\n        (attn_drop): Dropout(p=0.0, inplace=False)\n        (proj): Linear(in_features=768, out_features=768, bias=True)\n        (proj_drop): Dropout(p=0.0, inplace=False)\n      )\n      (ls1): Identity()\n      (drop_path1): Identity()\n      (norm2): LayerNorm((768,), eps=1e-06, elementwise_affine=True)\n      (mlp): Mlp(\n        (fc1): Linear(in_features=768, out_features=3072, bias=True)\n        (act): GELU(approximate=none)\n        (drop1): Dropout(p=0.0, inplace=False)\n        (fc2): Linear(in_features=3072, out_features=768, bias=True)\n        (drop2): Dropout(p=0.0, inplace=False)\n      )\n      (ls2): Identity()\n      (drop_path2): Identity()\n    )\n    (2): Block(\n      (norm1): LayerNorm((768,), eps=1e-06, elementwise_affine=True)\n      (attn): Attention(\n        (qkv): Linear(in_features=768, out_features=2304, bias=True)\n        (attn_drop): Dropout(p=0.0, inplace=False)\n        (proj): Linear(in_features=768, out_features=768, bias=True)\n        (proj_drop): Dropout(p=0.0, inplace=False)\n      )\n      (ls1): Identity()\n      (drop_path1): Identity()\n      (norm2): LayerNorm((768,), eps=1e-06, elementwise_affine=True)\n      (mlp): Mlp(\n        (fc1): Linear(in_features=768, out_features=3072, bias=True)\n        (act): GELU(approximate=none)\n        (drop1): Dropout(p=0.0, inplace=False)\n        (fc2): Linear(in_features=3072, out_features=768, bias=True)\n        (drop2): Dropout(p=0.0, inplace=False)\n      )\n      (ls2): Identity()\n      (drop_path2): Identity()\n    )\n    (3): Block(\n      (norm1): LayerNorm((768,), eps=1e-06, elementwise_affine=True)\n      (attn): Attention(\n        (qkv): Linear(in_features=768, out_features=2304, bias=True)\n        (attn_drop): Dropout(p=0.0, inplace=False)\n        (proj): Linear(in_features=768, out_features=768, bias=True)\n        (proj_drop): Dropout(p=0.0, inplace=False)\n      )\n      (ls1): Identity()\n      (drop_path1): Identity()\n      (norm2): LayerNorm((768,), eps=1e-06, elementwise_affine=True)\n      (mlp): Mlp(\n        (fc1): Linear(in_features=768, out_features=3072, bias=True)\n        (act): GELU(approximate=none)\n        (drop1): Dropout(p=0.0, inplace=False)\n        (fc2): Linear(in_features=3072, out_features=768, bias=True)\n        (drop2): Dropout(p=0.0, inplace=False)\n      )\n      (ls2): Identity()\n      (drop_path2): Identity()\n    )\n    (4): Block(\n      (norm1): LayerNorm((768,), eps=1e-06, elementwise_affine=True)\n      (attn): Attention(\n        (qkv): Linear(in_features=768, out_features=2304, bias=True)\n        (attn_drop): Dropout(p=0.0, inplace=False)\n        (proj): Linear(in_features=768, out_features=768, bias=True)\n        (proj_drop): Dropout(p=0.0, inplace=False)\n      )\n      (ls1): Identity()\n      (drop_path1): Identity()\n      (norm2): LayerNorm((768,), eps=1e-06, elementwise_affine=True)\n      (mlp): Mlp(\n        (fc1): Linear(in_features=768, out_features=3072, bias=True)\n        (act): GELU(approximate=none)\n        (drop1): Dropout(p=0.0, inplace=False)\n        (fc2): Linear(in_features=3072, out_features=768, bias=True)\n        (drop2): Dropout(p=0.0, inplace=False)\n      )\n      (ls2): Identity()\n      (drop_path2): Identity()\n    )\n    (5): Block(\n      (norm1): LayerNorm((768,), eps=1e-06, elementwise_affine=True)\n      (attn): Attention(\n        (qkv): Linear(in_features=768, out_features=2304, bias=True)\n        (attn_drop): Dropout(p=0.0, inplace=False)\n        (proj): Linear(in_features=768, out_features=768, bias=True)\n        (proj_drop): Dropout(p=0.0, inplace=False)\n      )\n      (ls1): Identity()\n      (drop_path1): Identity()\n      (norm2): LayerNorm((768,), eps=1e-06, elementwise_affine=True)\n      (mlp): Mlp(\n        (fc1): Linear(in_features=768, out_features=3072, bias=True)\n        (act): GELU(approximate=none)\n        (drop1): Dropout(p=0.0, inplace=False)\n        (fc2): Linear(in_features=3072, out_features=768, bias=True)\n        (drop2): Dropout(p=0.0, inplace=False)\n      )\n      (ls2): Identity()\n      (drop_path2): Identity()\n    )\n    (6): Block(\n      (norm1): LayerNorm((768,), eps=1e-06, elementwise_affine=True)\n      (attn): Attention(\n        (qkv): Linear(in_features=768, out_features=2304, bias=True)\n        (attn_drop): Dropout(p=0.0, inplace=False)\n        (proj): Linear(in_features=768, out_features=768, bias=True)\n        (proj_drop): Dropout(p=0.0, inplace=False)\n      )\n      (ls1): Identity()\n      (drop_path1): Identity()\n      (norm2): LayerNorm((768,), eps=1e-06, elementwise_affine=True)\n      (mlp): Mlp(\n        (fc1): Linear(in_features=768, out_features=3072, bias=True)\n        (act): GELU(approximate=none)\n        (drop1): Dropout(p=0.0, inplace=False)\n        (fc2): Linear(in_features=3072, out_features=768, bias=True)\n        (drop2): Dropout(p=0.0, inplace=False)\n      )\n      (ls2): Identity()\n      (drop_path2): Identity()\n    )\n    (7): Block(\n      (norm1): LayerNorm((768,), eps=1e-06, elementwise_affine=True)\n      (attn): Attention(\n        (qkv): Linear(in_features=768, out_features=2304, bias=True)\n        (attn_drop): Dropout(p=0.0, inplace=False)\n        (proj): Linear(in_features=768, out_features=768, bias=True)\n        (proj_drop): Dropout(p=0.0, inplace=False)\n      )\n      (ls1): Identity()\n      (drop_path1): Identity()\n      (norm2): LayerNorm((768,), eps=1e-06, elementwise_affine=True)\n      (mlp): Mlp(\n        (fc1): Linear(in_features=768, out_features=3072, bias=True)\n        (act): GELU(approximate=none)\n        (drop1): Dropout(p=0.0, inplace=False)\n        (fc2): Linear(in_features=3072, out_features=768, bias=True)\n        (drop2): Dropout(p=0.0, inplace=False)\n      )\n      (ls2): Identity()\n      (drop_path2): Identity()\n    )\n    (8): Block(\n      (norm1): LayerNorm((768,), eps=1e-06, elementwise_affine=True)\n      (attn): Attention(\n        (qkv): Linear(in_features=768, out_features=2304, bias=True)\n        (attn_drop): Dropout(p=0.0, inplace=False)\n        (proj): Linear(in_features=768, out_features=768, bias=True)\n        (proj_drop): Dropout(p=0.0, inplace=False)\n      )\n      (ls1): Identity()\n      (drop_path1): Identity()\n      (norm2): LayerNorm((768,), eps=1e-06, elementwise_affine=True)\n      (mlp): Mlp(\n        (fc1): Linear(in_features=768, out_features=3072, bias=True)\n        (act): GELU(approximate=none)\n        (drop1): Dropout(p=0.0, inplace=False)\n        (fc2): Linear(in_features=3072, out_features=768, bias=True)\n        (drop2): Dropout(p=0.0, inplace=False)\n      )\n      (ls2): Identity()\n      (drop_path2): Identity()\n    )\n    (9): Block(\n      (norm1): LayerNorm((768,), eps=1e-06, elementwise_affine=True)\n      (attn): Attention(\n        (qkv): Linear(in_features=768, out_features=2304, bias=True)\n        (attn_drop): Dropout(p=0.0, inplace=False)\n        (proj): Linear(in_features=768, out_features=768, bias=True)\n        (proj_drop): Dropout(p=0.0, inplace=False)\n      )\n      (ls1): Identity()\n      (drop_path1): Identity()\n      (norm2): LayerNorm((768,), eps=1e-06, elementwise_affine=True)\n      (mlp): Mlp(\n        (fc1): Linear(in_features=768, out_features=3072, bias=True)\n        (act): GELU(approximate=none)\n        (drop1): Dropout(p=0.0, inplace=False)\n        (fc2): Linear(in_features=3072, out_features=768, bias=True)\n        (drop2): Dropout(p=0.0, inplace=False)\n      )\n      (ls2): Identity()\n      (drop_path2): Identity()\n    )\n    (10): Block(\n      (norm1): LayerNorm((768,), eps=1e-06, elementwise_affine=True)\n      (attn): Attention(\n        (qkv): Linear(in_features=768, out_features=2304, bias=True)\n        (attn_drop): Dropout(p=0.0, inplace=False)\n        (proj): Linear(in_features=768, out_features=768, bias=True)\n        (proj_drop): Dropout(p=0.0, inplace=False)\n      )\n      (ls1): Identity()\n      (drop_path1): Identity()\n      (norm2): LayerNorm((768,), eps=1e-06, elementwise_affine=True)\n      (mlp): Mlp(\n        (fc1): Linear(in_features=768, out_features=3072, bias=True)\n        (act): GELU(approximate=none)\n        (drop1): Dropout(p=0.0, inplace=False)\n        (fc2): Linear(in_features=3072, out_features=768, bias=True)\n        (drop2): Dropout(p=0.0, inplace=False)\n      )\n      (ls2): Identity()\n      (drop_path2): Identity()\n    )\n    (11): Block(\n      (norm1): LayerNorm((768,), eps=1e-06, elementwise_affine=True)\n      (attn): Attention(\n        (qkv): Linear(in_features=768, out_features=2304, bias=True)\n        (attn_drop): Dropout(p=0.0, inplace=False)\n        (proj): Linear(in_features=768, out_features=768, bias=True)\n        (proj_drop): Dropout(p=0.0, inplace=False)\n      )\n      (ls1): Identity()\n      (drop_path1): Identity()\n      (norm2): LayerNorm((768,), eps=1e-06, elementwise_affine=True)\n      (mlp): Mlp(\n        (fc1): Linear(in_features=768, out_features=3072, bias=True)\n        (act): GELU(approximate=none)\n        (drop1): Dropout(p=0.0, inplace=False)\n        (fc2): Linear(in_features=3072, out_features=768, bias=True)\n        (drop2): Dropout(p=0.0, inplace=False)\n      )\n      (ls2): Identity()\n      (drop_path2): Identity()\n    )\n  )\n  (norm): LayerNorm((768,), eps=1e-06, elementwise_affine=True)\n  (fc_norm): Identity()\n  (head): Linear(in_features=768, out_features=1000, bias=True)\n)\n\n\n변경 구조(for 18 classes)\nVisionTransformer(\n  (patch_embed): PatchEmbed(\n    (proj): Conv2d(3, 768, kernel_size=(16, 16), stride=(16, 16))\n    (norm): Identity()\n  )\n  (pos_drop): Dropout(p=0.0, inplace=False)\n  (norm_pre): Identity()\n  (blocks): Sequential(\n    (0): Block(\n      (norm1): LayerNorm((768,), eps=1e-06, elementwise_affine=True)\n      (attn): Attention(\n        (qkv): Linear(in_features=768, out_features=2304, bias=True)\n        (attn_drop): Dropout(p=0.0, inplace=False)\n        (proj): Linear(in_features=768, out_features=768, bias=True)\n        (proj_drop): Dropout(p=0.0, inplace=False)\n      )\n      (ls1): Identity()\n      (drop_path1): Identity()\n      (norm2): LayerNorm((768,), eps=1e-06, elementwise_affine=True)\n      (mlp): Mlp(\n        (fc1): Linear(in_features=768, out_features=3072, bias=True)\n        (act): GELU(approximate=none)\n        (drop1): Dropout(p=0.0, inplace=False)\n        (fc2): Linear(in_features=3072, out_features=768, bias=True)\n        (drop2): Dropout(p=0.0, inplace=False)\n      )\n      (ls2): Identity()\n      (drop_path2): Identity()\n    )\n    (1): Block(\n      (norm1): LayerNorm((768,), eps=1e-06, elementwise_affine=True)\n      (attn): Attention(\n        (qkv): Linear(in_features=768, out_features=2304, bias=True)\n        (attn_drop): Dropout(p=0.0, inplace=False)\n        (proj): Linear(in_features=768, out_features=768, bias=True)\n        (proj_drop): Dropout(p=0.0, inplace=False)\n      )\n      (ls1): Identity()\n      (drop_path1): Identity()\n      (norm2): LayerNorm((768,), eps=1e-06, elementwise_affine=True)\n      (mlp): Mlp(\n        (fc1): Linear(in_features=768, out_features=3072, bias=True)\n        (act): GELU(approximate=none)\n        (drop1): Dropout(p=0.0, inplace=False)\n        (fc2): Linear(in_features=3072, out_features=768, bias=True)\n        (drop2): Dropout(p=0.0, inplace=False)\n      )\n      (ls2): Identity()\n      (drop_path2): Identity()\n    )\n    (2): Block(\n      (norm1): LayerNorm((768,), eps=1e-06, elementwise_affine=True)\n      (attn): Attention(\n        (qkv): Linear(in_features=768, out_features=2304, bias=True)\n        (attn_drop): Dropout(p=0.0, inplace=False)\n        (proj): Linear(in_features=768, out_features=768, bias=True)\n        (proj_drop): Dropout(p=0.0, inplace=False)\n      )\n      (ls1): Identity()\n      (drop_path1): Identity()\n      (norm2): LayerNorm((768,), eps=1e-06, elementwise_affine=True)\n      (mlp): Mlp(\n        (fc1): Linear(in_features=768, out_features=3072, bias=True)\n        (act): GELU(approximate=none)\n        (drop1): Dropout(p=0.0, inplace=False)\n        (fc2): Linear(in_features=3072, out_features=768, bias=True)\n        (drop2): Dropout(p=0.0, inplace=False)\n      )\n      (ls2): Identity()\n      (drop_path2): Identity()\n    )\n    (3): Block(\n      (norm1): LayerNorm((768,), eps=1e-06, elementwise_affine=True)\n      (attn): Attention(\n        (qkv): Linear(in_features=768, out_features=2304, bias=True)\n        (attn_drop): Dropout(p=0.0, inplace=False)\n        (proj): Linear(in_features=768, out_features=768, bias=True)\n        (proj_drop): Dropout(p=0.0, inplace=False)\n      )\n      (ls1): Identity()\n      (drop_path1): Identity()\n      (norm2): LayerNorm((768,), eps=1e-06, elementwise_affine=True)\n      (mlp): Mlp(\n        (fc1): Linear(in_features=768, out_features=3072, bias=True)\n        (act): GELU(approximate=none)\n        (drop1): Dropout(p=0.0, inplace=False)\n        (fc2): Linear(in_features=3072, out_features=768, bias=True)\n        (drop2): Dropout(p=0.0, inplace=False)\n      )\n      (ls2): Identity()\n      (drop_path2): Identity()\n    )\n    (4): Block(\n      (norm1): LayerNorm((768,), eps=1e-06, elementwise_affine=True)\n      (attn): Attention(\n        (qkv): Linear(in_features=768, out_features=2304, bias=True)\n        (attn_drop): Dropout(p=0.0, inplace=False)\n        (proj): Linear(in_features=768, out_features=768, bias=True)\n        (proj_drop): Dropout(p=0.0, inplace=False)\n      )\n      (ls1): Identity()\n      (drop_path1): Identity()\n      (norm2): LayerNorm((768,), eps=1e-06, elementwise_affine=True)\n      (mlp): Mlp(\n        (fc1): Linear(in_features=768, out_features=3072, bias=True)\n        (act): GELU(approximate=none)\n        (drop1): Dropout(p=0.0, inplace=False)\n        (fc2): Linear(in_features=3072, out_features=768, bias=True)\n        (drop2): Dropout(p=0.0, inplace=False)\n      )\n      (ls2): Identity()\n      (drop_path2): Identity()\n    )\n    (5): Block(\n      (norm1): LayerNorm((768,), eps=1e-06, elementwise_affine=True)\n      (attn): Attention(\n        (qkv): Linear(in_features=768, out_features=2304, bias=True)\n        (attn_drop): Dropout(p=0.0, inplace=False)\n        (proj): Linear(in_features=768, out_features=768, bias=True)\n        (proj_drop): Dropout(p=0.0, inplace=False)\n      )\n      (ls1): Identity()\n      (drop_path1): Identity()\n      (norm2): LayerNorm((768,), eps=1e-06, elementwise_affine=True)\n      (mlp): Mlp(\n        (fc1): Linear(in_features=768, out_features=3072, bias=True)\n        (act): GELU(approximate=none)\n        (drop1): Dropout(p=0.0, inplace=False)\n        (fc2): Linear(in_features=3072, out_features=768, bias=True)\n        (drop2): Dropout(p=0.0, inplace=False)\n      )\n      (ls2): Identity()\n      (drop_path2): Identity()\n    )\n    (6): Block(\n      (norm1): LayerNorm((768,), eps=1e-06, elementwise_affine=True)\n      (attn): Attention(\n        (qkv): Linear(in_features=768, out_features=2304, bias=True)\n        (attn_drop): Dropout(p=0.0, inplace=False)\n        (proj): Linear(in_features=768, out_features=768, bias=True)\n        (proj_drop): Dropout(p=0.0, inplace=False)\n      )\n      (ls1): Identity()\n      (drop_path1): Identity()\n      (norm2): LayerNorm((768,), eps=1e-06, elementwise_affine=True)\n      (mlp): Mlp(\n        (fc1): Linear(in_features=768, out_features=3072, bias=True)\n        (act): GELU(approximate=none)\n        (drop1): Dropout(p=0.0, inplace=False)\n        (fc2): Linear(in_features=3072, out_features=768, bias=True)\n        (drop2): Dropout(p=0.0, inplace=False)\n      )\n      (ls2): Identity()\n      (drop_path2): Identity()\n    )\n    (7): Block(\n      (norm1): LayerNorm((768,), eps=1e-06, elementwise_affine=True)\n      (attn): Attention(\n        (qkv): Linear(in_features=768, out_features=2304, bias=True)\n        (attn_drop): Dropout(p=0.0, inplace=False)\n        (proj): Linear(in_features=768, out_features=768, bias=True)\n        (proj_drop): Dropout(p=0.0, inplace=False)\n      )\n      (ls1): Identity()\n      (drop_path1): Identity()\n      (norm2): LayerNorm((768,), eps=1e-06, elementwise_affine=True)\n      (mlp): Mlp(\n        (fc1): Linear(in_features=768, out_features=3072, bias=True)\n        (act): GELU(approximate=none)\n        (drop1): Dropout(p=0.0, inplace=False)\n        (fc2): Linear(in_features=3072, out_features=768, bias=True)\n        (drop2): Dropout(p=0.0, inplace=False)\n      )\n      (ls2): Identity()\n      (drop_path2): Identity()\n    )\n    (8): Block(\n      (norm1): LayerNorm((768,), eps=1e-06, elementwise_affine=True)\n      (attn): Attention(\n        (qkv): Linear(in_features=768, out_features=2304, bias=True)\n        (attn_drop): Dropout(p=0.0, inplace=False)\n        (proj): Linear(in_features=768, out_features=768, bias=True)\n        (proj_drop): Dropout(p=0.0, inplace=False)\n      )\n      (ls1): Identity()\n      (drop_path1): Identity()\n      (norm2): LayerNorm((768,), eps=1e-06, elementwise_affine=True)\n      (mlp): Mlp(\n        (fc1): Linear(in_features=768, out_features=3072, bias=True)\n        (act): GELU(approximate=none)\n        (drop1): Dropout(p=0.0, inplace=False)\n        (fc2): Linear(in_features=3072, out_features=768, bias=True)\n        (drop2): Dropout(p=0.0, inplace=False)\n      )\n      (ls2): Identity()\n      (drop_path2): Identity()\n    )\n    (9): Block(\n      (norm1): LayerNorm((768,), eps=1e-06, elementwise_affine=True)\n      (attn): Attention(\n        (qkv): Linear(in_features=768, out_features=2304, bias=True)\n        (attn_drop): Dropout(p=0.0, inplace=False)\n        (proj): Linear(in_features=768, out_features=768, bias=True)\n        (proj_drop): Dropout(p=0.0, inplace=False)\n      )\n      (ls1): Identity()\n      (drop_path1): Identity()\n      (norm2): LayerNorm((768,), eps=1e-06, elementwise_affine=True)\n      (mlp): Mlp(\n        (fc1): Linear(in_features=768, out_features=3072, bias=True)\n        (act): GELU(approximate=none)\n        (drop1): Dropout(p=0.0, inplace=False)\n        (fc2): Linear(in_features=3072, out_features=768, bias=True)\n        (drop2): Dropout(p=0.0, inplace=False)\n      )\n      (ls2): Identity()\n      (drop_path2): Identity()\n    )\n    (10): Block(\n      (norm1): LayerNorm((768,), eps=1e-06, elementwise_affine=True)\n      (attn): Attention(\n        (qkv): Linear(in_features=768, out_features=2304, bias=True)\n        (attn_drop): Dropout(p=0.0, inplace=False)\n        (proj): Linear(in_features=768, out_features=768, bias=True)\n        (proj_drop): Dropout(p=0.0, inplace=False)\n      )\n      (ls1): Identity()\n      (drop_path1): Identity()\n      (norm2): LayerNorm((768,), eps=1e-06, elementwise_affine=True)\n      (mlp): Mlp(\n        (fc1): Linear(in_features=768, out_features=3072, bias=True)\n        (act): GELU(approximate=none)\n        (drop1): Dropout(p=0.0, inplace=False)\n        (fc2): Linear(in_features=3072, out_features=768, bias=True)\n        (drop2): Dropout(p=0.0, inplace=False)\n      )\n      (ls2): Identity()\n      (drop_path2): Identity()\n    )\n    (11): Block(\n      (norm1): LayerNorm((768,), eps=1e-06, elementwise_affine=True)\n      (attn): Attention(\n        (qkv): Linear(in_features=768, out_features=2304, bias=True)\n        (attn_drop): Dropout(p=0.0, inplace=False)\n        (proj): Linear(in_features=768, out_features=768, bias=True)\n        (proj_drop): Dropout(p=0.0, inplace=False)\n      )\n      (ls1): Identity()\n      (drop_path1): Identity()\n      (norm2): LayerNorm((768,), eps=1e-06, elementwise_affine=True)\n      (mlp): Mlp(\n        (fc1): Linear(in_features=768, out_features=3072, bias=True)\n        (act): GELU(approximate=none)\n        (drop1): Dropout(p=0.0, inplace=False)\n        (fc2): Linear(in_features=3072, out_features=768, bias=True)\n        (drop2): Dropout(p=0.0, inplace=False)\n      )\n      (ls2): Identity()\n      (drop_path2): Identity()\n    )\n  )\n  (norm): LayerNorm((768,), eps=1e-06, elementwise_affine=True)\n  (fc_norm): Identity()\n  (head): Linear(in_features=768, out_features=18, bias=True)\n)\n\n\n기본적으로 patch_embed → encoder block → head 구조로 되어있다\nclass parameter 변경 시, head 부분의 out_features가 변경된다\ntorchvision.models에도 vit가 존재한다\n\n\ntorchvision.models\nVisionTransformer(\n  (conv_proj): Conv2d(3, 768, kernel_size=(32, 32), stride=(32, 32))\n  (encoder): Encoder(\n    (dropout): Dropout(p=0.0, inplace=False)\n    (layers): Sequential(\n      (encoder_layer_0): EncoderBlock(\n        (ln_1): LayerNorm((768,), eps=1e-06, elementwise_affine=True)\n        (self_attention): MultiheadAttention(\n          (out_proj): NonDynamicallyQuantizableLinear(in_features=768, out_features=768, bias=True)\n        )\n        (dropout): Dropout(p=0.0, inplace=False)\n        (ln_2): LayerNorm((768,), eps=1e-06, elementwise_affine=True)\n        (mlp): MLPBlock(\n          (0): Linear(in_features=768, out_features=3072, bias=True)\n          (1): GELU(approximate=none)\n          (2): Dropout(p=0.0, inplace=False)\n          (3): Linear(in_features=3072, out_features=768, bias=True)\n          (4): Dropout(p=0.0, inplace=False)\n        )\n      )\n      (encoder_layer_1): EncoderBlock(\n        (ln_1): LayerNorm((768,), eps=1e-06, elementwise_affine=True)\n        (self_attention): MultiheadAttention(\n          (out_proj): NonDynamicallyQuantizableLinear(in_features=768, out_features=768, bias=True)\n        )\n        (dropout): Dropout(p=0.0, inplace=False)\n        (ln_2): LayerNorm((768,), eps=1e-06, elementwise_affine=True)\n        (mlp): MLPBlock(\n          (0): Linear(in_features=768, out_features=3072, bias=True)\n          (1): GELU(approximate=none)\n          (2): Dropout(p=0.0, inplace=False)\n          (3): Linear(in_features=3072, out_features=768, bias=True)\n          (4): Dropout(p=0.0, inplace=False)\n        )\n      )\n      (encoder_layer_2): EncoderBlock(\n        (ln_1): LayerNorm((768,), eps=1e-06, elementwise_affine=True)\n        (self_attention): MultiheadAttention(\n          (out_proj): NonDynamicallyQuantizableLinear(in_features=768, out_features=768, bias=True)\n        )\n        (dropout): Dropout(p=0.0, inplace=False)\n        (ln_2): LayerNorm((768,), eps=1e-06, elementwise_affine=True)\n        (mlp): MLPBlock(\n          (0): Linear(in_features=768, out_features=3072, bias=True)\n          (1): GELU(approximate=none)\n          (2): Dropout(p=0.0, inplace=False)\n          (3): Linear(in_features=3072, out_features=768, bias=True)\n          (4): Dropout(p=0.0, inplace=False)\n        )\n      )\n      (encoder_layer_3): EncoderBlock(\n        (ln_1): LayerNorm((768,), eps=1e-06, elementwise_affine=True)\n        (self_attention): MultiheadAttention(\n          (out_proj): NonDynamicallyQuantizableLinear(in_features=768, out_features=768, bias=True)\n        )\n        (dropout): Dropout(p=0.0, inplace=False)\n        (ln_2): LayerNorm((768,), eps=1e-06, elementwise_affine=True)\n        (mlp): MLPBlock(\n          (0): Linear(in_features=768, out_features=3072, bias=True)\n          (1): GELU(approximate=none)\n          (2): Dropout(p=0.0, inplace=False)\n          (3): Linear(in_features=3072, out_features=768, bias=True)\n          (4): Dropout(p=0.0, inplace=False)\n        )\n      )\n      (encoder_layer_4): EncoderBlock(\n        (ln_1): LayerNorm((768,), eps=1e-06, elementwise_affine=True)\n        (self_attention): MultiheadAttention(\n          (out_proj): NonDynamicallyQuantizableLinear(in_features=768, out_features=768, bias=True)\n        )\n        (dropout): Dropout(p=0.0, inplace=False)\n        (ln_2): LayerNorm((768,), eps=1e-06, elementwise_affine=True)\n        (mlp): MLPBlock(\n          (0): Linear(in_features=768, out_features=3072, bias=True)\n          (1): GELU(approximate=none)\n          (2): Dropout(p=0.0, inplace=False)\n          (3): Linear(in_features=3072, out_features=768, bias=True)\n          (4): Dropout(p=0.0, inplace=False)\n        )\n      )\n      (encoder_layer_5): EncoderBlock(\n        (ln_1): LayerNorm((768,), eps=1e-06, elementwise_affine=True)\n        (self_attention): MultiheadAttention(\n          (out_proj): NonDynamicallyQuantizableLinear(in_features=768, out_features=768, bias=True)\n        )\n        (dropout): Dropout(p=0.0, inplace=False)\n        (ln_2): LayerNorm((768,), eps=1e-06, elementwise_affine=True)\n        (mlp): MLPBlock(\n          (0): Linear(in_features=768, out_features=3072, bias=True)\n          (1): GELU(approximate=none)\n          (2): Dropout(p=0.0, inplace=False)\n          (3): Linear(in_features=3072, out_features=768, bias=True)\n          (4): Dropout(p=0.0, inplace=False)\n        )\n      )\n      (encoder_layer_6): EncoderBlock(\n        (ln_1): LayerNorm((768,), eps=1e-06, elementwise_affine=True)\n        (self_attention): MultiheadAttention(\n          (out_proj): NonDynamicallyQuantizableLinear(in_features=768, out_features=768, bias=True)\n        )\n        (dropout): Dropout(p=0.0, inplace=False)\n        (ln_2): LayerNorm((768,), eps=1e-06, elementwise_affine=True)\n        (mlp): MLPBlock(\n          (0): Linear(in_features=768, out_features=3072, bias=True)\n          (1): GELU(approximate=none)\n          (2): Dropout(p=0.0, inplace=False)\n          (3): Linear(in_features=3072, out_features=768, bias=True)\n          (4): Dropout(p=0.0, inplace=False)\n        )\n      )\n      (encoder_layer_7): EncoderBlock(\n        (ln_1): LayerNorm((768,), eps=1e-06, elementwise_affine=True)\n        (self_attention): MultiheadAttention(\n          (out_proj): NonDynamicallyQuantizableLinear(in_features=768, out_features=768, bias=True)\n        )\n        (dropout): Dropout(p=0.0, inplace=False)\n        (ln_2): LayerNorm((768,), eps=1e-06, elementwise_affine=True)\n        (mlp): MLPBlock(\n          (0): Linear(in_features=768, out_features=3072, bias=True)\n          (1): GELU(approximate=none)\n          (2): Dropout(p=0.0, inplace=False)\n          (3): Linear(in_features=3072, out_features=768, bias=True)\n          (4): Dropout(p=0.0, inplace=False)\n        )\n      )\n      (encoder_layer_8): EncoderBlock(\n        (ln_1): LayerNorm((768,), eps=1e-06, elementwise_affine=True)\n        (self_attention): MultiheadAttention(\n          (out_proj): NonDynamicallyQuantizableLinear(in_features=768, out_features=768, bias=True)\n        )\n        (dropout): Dropout(p=0.0, inplace=False)\n        (ln_2): LayerNorm((768,), eps=1e-06, elementwise_affine=True)\n        (mlp): MLPBlock(\n          (0): Linear(in_features=768, out_features=3072, bias=True)\n          (1): GELU(approximate=none)\n          (2): Dropout(p=0.0, inplace=False)\n          (3): Linear(in_features=3072, out_features=768, bias=True)\n          (4): Dropout(p=0.0, inplace=False)\n        )\n      )\n      (encoder_layer_9): EncoderBlock(\n        (ln_1): LayerNorm((768,), eps=1e-06, elementwise_affine=True)\n        (self_attention): MultiheadAttention(\n          (out_proj): NonDynamicallyQuantizableLinear(in_features=768, out_features=768, bias=True)\n        )\n        (dropout): Dropout(p=0.0, inplace=False)\n        (ln_2): LayerNorm((768,), eps=1e-06, elementwise_affine=True)\n        (mlp): MLPBlock(\n          (0): Linear(in_features=768, out_features=3072, bias=True)\n          (1): GELU(approximate=none)\n          (2): Dropout(p=0.0, inplace=False)\n          (3): Linear(in_features=3072, out_features=768, bias=True)\n          (4): Dropout(p=0.0, inplace=False)\n        )\n      )\n      (encoder_layer_10): EncoderBlock(\n        (ln_1): LayerNorm((768,), eps=1e-06, elementwise_affine=True)\n        (self_attention): MultiheadAttention(\n          (out_proj): NonDynamicallyQuantizableLinear(in_features=768, out_features=768, bias=True)\n        )\n        (dropout): Dropout(p=0.0, inplace=False)\n        (ln_2): LayerNorm((768,), eps=1e-06, elementwise_affine=True)\n        (mlp): MLPBlock(\n          (0): Linear(in_features=768, out_features=3072, bias=True)\n          (1): GELU(approximate=none)\n          (2): Dropout(p=0.0, inplace=False)\n          (3): Linear(in_features=3072, out_features=768, bias=True)\n          (4): Dropout(p=0.0, inplace=False)\n        )\n      )\n      (encoder_layer_11): EncoderBlock(\n        (ln_1): LayerNorm((768,), eps=1e-06, elementwise_affine=True)\n        (self_attention): MultiheadAttention(\n          (out_proj): NonDynamicallyQuantizableLinear(in_features=768, out_features=768, bias=True)\n        )\n        (dropout): Dropout(p=0.0, inplace=False)\n        (ln_2): LayerNorm((768,), eps=1e-06, elementwise_affine=True)\n        (mlp): MLPBlock(\n          (0): Linear(in_features=768, out_features=3072, bias=True)\n          (1): GELU(approximate=none)\n          (2): Dropout(p=0.0, inplace=False)\n          (3): Linear(in_features=3072, out_features=768, bias=True)\n          (4): Dropout(p=0.0, inplace=False)\n        )\n      )\n    )\n    (ln): LayerNorm((768,), eps=1e-06, elementwise_affine=True)\n  )\n  (heads): Sequential(\n    (head): Linear(in_features=768, out_features=1000, bias=True)\n  )\n)\n\n\nMultiheadAttention Block 내부가 print로 노출되지 않는 점을 제외하고는 동일한 구조를 가지고 있으므로 TorchVision의 ViT를 사용해서 모델을 구성했다.\n\n\nModel Code\nimport torch\nimport torch.nn as nn\nimport torch.optim as optim\nimport torch.nn.functional as F\nimport torchvision.models as models\n \n \nclass VIT_V0_KHS(nn.Module):\n    def __init__(self, is_freeze:bool = True):\n
…
